…
nettes/inst/muller-campaign-communication\",                     learning_rate=0.02,                                 mini_batch_size=8L,                                 anneal_with_restarts = TRUE,                   save_final_model=TRUE,                   max_epochs=1L)    #> 2025-01-06 02:17:30,446 ---------------------------------------------------------------------------------------------------- #> 2025-01-06 02:17:30,446 Model: \"TextClassifier( #>   (embeddings): TransformerDocumentEmbeddings( #>     (model): DistilBertModel( #>       (embeddings): Embeddings( #>         (word_embeddings): Embedding(30523, 768, padding_idx=0) #>         (position_embeddings): Embedding(512, 768) #>         (LayerNorm): LayerNorm((768,), eps=1e-12, elementwise_affine=True) #>         (dropout): Dropout(p=0.1, inplace=False) #>       ) #>       (transformer): Transformer( #>         (layer): ModuleList( #>           (0-5): 6 x TransformerBlock( #>             (attention): MultiHeadSelfAttention( #>               (dropout): Dropout(p=0.1, inplace=False) #>               (q_lin): Linear(in_features=768, out_features=768, bias=True) #>               (k_lin): Linear(in_features=768, out_features=768, bias=True) #>               (v_lin): Linear(in_features=768, out_features=768, bias=True) #>               (out_lin): Linear(in_features=768, out_features=768, bias=True) #>             ) #>             (sa_layer_norm): LayerNorm((768,), eps=1e-12, elementwise_affine=True) #>             (ffn): FFN( #>               (dropout): Dropout(p=0.1, inplace=False) #>               (lin1): Linear(in_features=768, out_features=3072, bias=True) #>               (lin2): Linear(in_features=3072, out_features=768, bias=True) #>               (activation): GELUActivation() #>             ) #>             (output_layer_norm): LayerNorm((768,), eps=1e-12, elementwise_affine=True) #>           ) #>         ) #>       ) #>     ) #>   ) #>   (decoder): Linear(in_features=768, out_features=3, bias=True) #>   (dropout): Dropout(p=0.0, inplace=False) #>   (locked_dropout): LockedDropout(p=0.0) #>   (word_dropout): WordDropout(p=0.0) #>   (loss_function): CrossEntropyLoss() #>   (weights): None #>   (weight_tensor) None #> )\" #> 2025-01-06 02:17:30,446 ---------------------------------------------------------------------------------------------------- #> 
…
