…
how.text_id set FALSE default.","code":"library(flaiR) data(\"uk_immigration\") uk_immigration <- head(uk_immigration, 10) tagger_ner <- load_tagger_ner(\"ner\") #> 2023-10-22 20:27:17,762 SequenceTagger predicts: Dictionary with 20 tags: <unk>, O, S-ORG, S-MISC, B-PER, E-PER, S-LOC, B-ORG, E-ORG, I-PER, S-PER, B-MISC, I-MISC, E-MISC, I-ORG, B-LOC, E-LOC, I-LOC, <START>, <STOP> tagger_pos$to(flair_device(\"mps\")) SequenceTagger(   (embeddings): StackedEmbeddings(     (list_embedding_0): FlairEmbeddings(       (lm): LanguageModel(         (drop): Dropout(p=0.05, inplace=False)         (encoder): Embedding(300, 100)         (rnn): LSTM(100, 2048)         (decoder): Linear(in_features=2048, out_features=300, bias=True)       )     )     (list_embedding_1): FlairEmbeddings(       (lm): LanguageModel(         (drop): Dropout(p=0.05, inplace=False)         (encoder): Embedding(300, 100)         (rnn): LSTM(100, 2048)         (decoder): Linear(in_features=2048, out_features=300, bias=True)       )     )   )   (word_dropout): WordDropout(p=0.05)   (locked_dropout): LockedDropout(p=0.5)   (embedding2nn): Linear(in_features=4096, out_features=4096, bias=True)   (rnn): LSTM(4096, 256, batch_first=True, bidirectional=True)   (linear): Linear(in_features=512, out_features=53, bias=True)   (loss_function): ViterbiLoss()   (crf): CRF() ) results <- get_entities(uk_immigration$text,                         uk_immigration$speaker,                          tagger_ner,                         show.text_id = FALSE                         ) print(results) #>               doc_id                          entity  tag #>  1: Philip Hollobone     
…
ether use CPU, CUDA devices (like cuda:0, cuda:1, cuda:2), specific MPS devices Mac (mps:0, mps:1, mps:2). information Accelerated PyTorch training Mac, please refer https://developer.apple.com/metal/pytorch/. CUDA, please visit: https://developer.nvidia.com/cuda-zone","code":"library(flaiR) data(\"uk_immigration\") uk_immigration <- head(uk_immigration, 5) tagger_sent <- load_tagger_sentiments(\"sentiment\") tagger_sent$to(flair_device(\"mps\")) TextClassifier(   (embeddings): TransformerDocumentEmbeddings(     (model): DistilBertModel(       (embeddings): Embeddings(         (word_embeddings): Embedding(30522, 768, padding_idx=0)         (position_embeddings): Embedding(512, 768)         (LayerNorm): LayerNorm((768,), eps=1e-12, elementwise_affine=True)         (dropout): Dropout(p=0.1, inplace=False)       )       (transformer): Transformer(         (layer): ModuleList(           (0-5): 6 x TransformerBlock(             (attention): MultiHeadSelfAttention(               (dropout): Dropout(p=0.1, inplace=False)               (q_lin): Linear(in_features=768, out_features=768, bias=True)               (k_lin): Linear(in_features=768, out_features=768, bias=True)               (v_lin): Linear(in_features=768, out_features=768, bias=True)               (out_lin): Linear(in_features=768, out_features=768, bias=True)             )             (sa_layer_norm): LayerNorm((768,), eps=1e-12, elementwise_affine=True)             (ffn): FFN(               (dropout): Dropout(p=0.1, inplace=False)               (lin1): Linear(in_features=768, out_features=3072, bias=True)               (lin2): Linear(in_features=3072, out_features=768, bias=True)               (activation): GELUActivation()             )             (output_layer_norm): LayerNorm((768,), eps=1e-12, elementwise_affine=True)           )         )       )     )   )   (decoder): Linear(in_features=768, out_features=2, bias=True)   (dropout): Dropout(p=0.0, inplace=False)   (locked_dropout): LockedDropout(p=0.0)   (word_dropout): WordDropout(p=0.0)   (loss_function): CrossEntropyLoss() ) results <- get_sentiments(uk_immigration$text, seq_len(nrow(uk_immigration)),                           tagger_sent) print(results) #>    doc_id sentiment     score #> 1:      1  POSITIVE 0.80975
…
